…
An error will be thrown when we try to run forward on the embedding layer
```
RuntimeError: 'weight' must be 2-D 
```
This error is caused by the trainer incorrectly using the unwrapped model in training, so it doesn't trigger the all gather calls of FSDP v1 properly and thus the weight shape is unexpected.

### Expected behavior

We expect the trainer to use the FSDP-wrapped model consistently, so that the error above does not happen.

If we print the model right before we call model.forward, we will see that the model is unwrapped:
```
Qwen2ForCausalLM(
  (model): Qwen2Model(
    (embed_tokens): Embedding(151936, 896)
    (layers): ModuleList(
      (0-23): 24 x Qwen2DecoderLayer(
        (self_attn): Qwen2Attention(
          (q_proj): Linear(in_features=896, out_features=896, bias=True)
          (k_proj): Linear(in_features=896, out_features=128, bias=True)
          (v_proj): Linear(in_features=896, out_features=128, bias=True)
          (o_proj): Linear(in_features=896, out_features=896, bias=False)
        )
        (mlp): Qwen2MLP(
          (gate_proj): Linear(in_features=896, out_features=4864, bias=False)
          (up_proj): Linear(in_features=896, out_features=4864, bias=False)
          (down_proj): Linear(in_features=4864, out_features=896, bias=False)
          (act_fn): SiLU()
        )
        (input_layernorm): Qwen2RMSNorm((0,), eps=1e-06)
        (post_attention_layernorm): Qwen2RMSNorm((0,), eps=1e-06)
      )
    )
    (norm): Qwen2RMSNorm((0,), eps=1e-06)
    (rotary_emb): Qwen2RotaryEmbedding()
  )
  (lm_head): Linear(in_features=896, out_features=151936, bias=False)
)
```
We expect it to be wrapped. After applying the fix in https://github.com/huggingface/transformers/pull/39617, we now use the wrapped model correctly:
```
FullyShardedDataParallel(
  (_fsdp_wrapped_module): Qwen2ForCausalLM(
    (model): Qwen2Model(
      (embed_tokens): Embedding(151936, 896)
      (layers): ModuleList(
        (0-23): 24 x Qwen2DecoderLayer(
          (self_attn): Qwen2Attention(
            (q_proj): Linear(in_features=896, out_features=896, bias=True)
            (k_proj): Linear(in_features=896, out_features=128, bias=True)
            (v_proj): Linear(in_features=896, out_features=128, bias=True)
            (o_proj): Linear(in_features=896, out_features=896, bias=False)
          )
          (mlp): Qwen2MLP(
            (gate_proj): Linear(in_features=896, out_features=4864, bias=False)
            (up_proj): Linear(in_features=896, out_features=4864, bias=False)
            (down_proj): Linear(in_features=4864, out_features=896, bias=False)
            (act_fn): SiLU()
          )
          (input_layernorm): Qwen2RMSNorm((0,), eps=1e-06)
          (post_attention_layernorm): Qwen2RMSNorm((0,), eps=1e-06)
        )
      )
      (norm): Qwen2RMSNorm((0,), eps=1e-06)
      (rotary_emb): Qwen2RotaryEmbedding()
    )
    (lm_head): Linear(in_features=896, out_features=151936, bias=False)
  )
)
```",Placeholder,Placeholder,Placeholder,Placeholder
160,"SageAttention for attention implementation?. ### Feature request

I've noticed it's been a while now, but transformers still only has flash attention as the fastest attention backend for calls like these: 

<img width=""1307"" height=""780"" alt=""Image"" src=""https://github.com/user-attachments/assets/3f3d62f6-a166-4ca6-97a0-49263fd93299"" />
…
